py_files/finetune_exp/dummy_encoder_mse_loss.pth (torch, 791519 bytes, 4 tensors)

fc1.weight f4 [128, 768]
0.0007483284 0.0069043413 0.016561266 -0.009304274 -0.03523538 -0.025286095 0.008680814 -0.01973782
0.0409106 -0.026530808 0.006820365 0.03901025 -0.012472283 0.023100689 0.027213529 0.03869004
0.036394805 -0.024247676 -0.020695185 -0.012881033 -0.0045564156 0.010477438 -0.007293651 0.009457668
-0.036263827 -0.0059934407 -0.013219406 0.03615855 -0.01754117 0.016099824 0.031035777 -0.022338655
0.011603907 0.0034199483 0.024819791 -0.026589632 -0.0013379169 -0.0018466628 0.0073622493 0.009149831
-0.020483896 -0.0068059163 -0.019180816 -0.009963164 0.024472132 -0.019951966 -0.011120095 -0.03194658
-0.025678009 0.0014207665 -0.014833164 -0.026258491 0.012122073 0.039637998 -0.029303575 0.042428073
-0.021329036 -0.0356751 -0.020296764 0.001188185 -0.015257131 0.006781779 -0.005138817 0.014577635
-0.011792482 -0.018779173 -0.017640326 -0.002072062 0.007778116 0.028843183 0.019817604 0.0383643
0.019710315 0.011360423 -0.00821505 -0.01192279 0.016232627 -0.011677217 0.011275091 0.026044678
-0.019979596 -0.014332514 0.020175105 0.010562904 -0.006367808 -0.026510144 0.021371765 -0.03396776
-0.007051411 0.017803831 -0.0007359805 0.02151382 0.008145452 -0.0069078896 0.03958893 0.03185288
-0.0428504 0.01828733 -0.0028111984 0.0059077614 0.017389324 -0.0034513266 -0.01141422 -0.027019005
-0.038045008 -0.011237156 0.021929743 -0.036027778 -0.04163451 -0.03430175 -0.0003461987 -0.024745464
0.014420495 -0.02605764 -0.02015656 -0.029302966 0.02698597 0.011297065 0.0014893218 0.019118821
-0.009681606 -0.014157618 0.0142758535 0.031288244 0.03239239 0.023325453 -0.01695666 0.029744627
-0.04121481 -0.023651019 0.008405921 0.0020588085 0.028121278 0.027700676 0.009083779 0.021154886
-0.039276086 0.0017175681 0.008776712 0.011484916 -0.020478904 0.013343255 0.017743198 -0.032170214
0.013080063 0.030124433 0.024137018 -0.015526211 0.015163435 -0.024327476 0.021521835 -0.005448202
0.0062473724 0.0038095084 -0.031021338 0.037489735 -0.01316662 -0.009287931 -0.013466145 -0.004224141
0.03817156 0.036501784 -0.00031276344 0.021621125 -0.0068892664 -0.013430816 0.04047815 0.004410749
0.026261793 -0.01713845 -0.0022245334 -0.0050491765 0.021366196 -0.0017164522 -0.0030970483 -0.005026856
-0.013881471 -0.017054304 0.024027359 0.022063637 0.032784663 0.0120539665 0.021781579 0.00040617574
-0.035020605 -0.005121556 0.017878905 0.010009858 0.0023609204 0.012035462 -0.023498476 0.003175239
-0.020607527 -0.015210563 -0.042340998 0.014987063 -0.019509023 0.01194503 -0.0030719072 -0.018597024
0.011449309 -0.023463074 -0.036493164 0.019604195 -0.02424741 0.023809038 0.011345958 0.015789878
0.03538405 0.00096423604 -0.01800285 0.022191664 0.011509026 -0.018522538 -0.017953042 0.013121279
0.018969359 -0.003106646 0.0024681129 -0.041255224 -0.010848156 0.0068129012 -0.04007578 0.018097294
0.0017142721 -0.025541054 0.04158474 -0.026647696 -0.020440787 0.01693521 -0.013532204 0.022324603
0.011691604 -0.0053480496 -0.035362873 -0.003675142 -0.012003277 -0.007973939 0.02596957 -0.010787306
-0.036280546 0.014688484 -0.017526867 0.009781629 0.03387278 -0.0009760087 0.022762207 0.012790058
-0.006083259 0.022116544 0.025403619 -0.014122899 0.028891841 0.012435193 -0.030227209 -0.0052877706
00000000: 782b 443a d03d e23b 7eab 873c f470 18bc
00000010: f952 10bd c924 cfbc f939 0e3c 35b1 a1bc
00000020: e091 273d 2357 d9bc 5e7d df3b 36c9 1f3d
00000030: 8c58 4cbc a83d bd3c e8ee de3c 7379 1e3d
00000040: b812 153d 10a3 c6bc f388 a9bc f80a 53bc
00000050: fc4d 95bb 8fa9 2b3c 94ff eebb 56f4 1a3c
00000060: 6189 14bd a064 c4bb 3596 58bc fd1a 143d
00000070: 80b2 8fbc c7e3 833c be3e fe3c 8eff b6bc
00000080: 501e 3e3c 3621 603b e052 cb3c 80d2 d9bc
00000090: 0b5d afba b90b f2ba 063f f13b 2ce9 153c
000000a0: d8cd a7bc 2a04 dfbb 1621 9dbc 8a3c 23bc
000000b0: c879 c83c 4e72 a3bc 0f31 36bc 6bda 02bd
000000c0: b05a d2bc 0339 ba3a cd06 73bc 0c1c d7bc
000000d0: a99b 463c 745b 223d 0d0e f0bc 0fc9 2d3d
000000e0: 3bba aebc 0e20 12bd 6645 a6bc dfbc 9b3a
000000f0: 0cf9 79bc b039 de3b 8563 a8bb 08d7 6e3c
00000100: 4135 41bc c8d6 99bc 7282 90bc 6fcb 07bb
00000110: 91df fe3b 8a48 ec3c 8758 a23c e223 1d3d
00000120: 8777 a13c 1121 3a3c 6b98 06bc ce57 43bc
00000130: 49fa 843c cc51 3fbc 29bb 383c a65b d53c
00000140: 40ac a3bc ecd2 6abc 4346 a53c 0810 2d3c
00000150: 0ca9 d0bb cd2b d9bc d713 af3c c721 0bbd
00000160: 860f e7bb 57d9 913c d1ee 40ba c03d b03c
00000170: 8074 053c 945b e2bb 0028 223d 2a78 023d
00000180: e783 2fbd 50cf 953c 153c 38bb e595 c13b
00000190: 0e74 8e3c a72f 62bb b502 3bbc f656 ddbc
000001a0: 15d5 1bbd 0c1c 38bc 01a6 b33c dd91 13bd
000001b0: f388 2abd fe7f 0cbd 0182 b5b9 00b7 cabc
000001c0: f143 6c3c d576 d5bc 5f1f a5bc c60c f0bc
000001d0: ae11 dd3c 5317 393c 5935 c33a 139f 9c3c
000001e0: 999f 1ebc 5bf5 67bc 45e5 693c 1a28 003d
000001f0: e2ad 043d 0515 bf3c b2e8 8abc 01ab f33c
00000200: dcd0 28bd c8bf c1bc fdb8 093c 13ed 063b
00000210: 985e e63c 87ec e23c 21d4 143c 034d ad3c
00000220: f6df 20bd 0620 e13a 33cc 0f3c 3b2b 3c3c
00000230: 60c3 a7bc ab9d 5a3c 2f5a 913c eac4 03bd
00000240: c34d 563c 84c7 f63c ffba c53c a661 7ebc
00000250: 0e70 783c 6a4a c7bc 8f4e b03c d586 b2bb
00000260: c2b6 cc3b f2a8 793b 7620 febc d68e 193d
00000270: cfb8 57bc 682c 18bc 1ba1 5cbc aa6a 8abb
00000280: c859 1c3d e582 153d 66fa a3b9 c91e b13c
00000290: 5bbf e1bb ed0c 5cbc 6bcc 253d 0b88 903b
000002a0: f922 d73c ef65 8cbc 7ac9 11bb 9073 a5bb
000002b0: 2908 af3c 94fa e0ba d9f7 4abb 53b8 a4bb
000002c0: 1c6f 63bc 78b5 8bbc 06d5 c43c cdbe b43c
000002d0: 3649 063d 007e 453c 486f b23c fcf3 d439
000002e0: c471 0fbd bad2 a7bb c876 923c 6300 243c
000002f0: acb9 1a3b 6330 453c e07f c0bc ac17 503b
00000300: 1ed1 a8bc ba35 79bc c16d 2dbd 4c8c 753c
00000310: 63d1 9fbc 16b5 433c 0d52 49bb c958 98bc
00000320: e295 3b3c a235 c0bc db79 15bd fa98 a03c
00000330: 81a2 c6bc 2c0b c33c 66e4 393c c659 813c
00000340: deee 103d c9c4 7c3a b67a 93bc 4bcb b53c
00000350: 5b90 3c3c 94bc 97bc 4212 93bc a2fa 563c
00000360: a165 9b3c df98 4bbb 10c0 213b 3dfb 28bd
00000370: 77bc 31bc c23e df3b 8026 24bd c740 943c
00000380: 6db1 e03a 793b d1bc c354 2a3d 454c dabc
00000390: 7073 a7bc b6bb 8a3c 2db6 5dbc 16e2 b63c
000003a0: 248e 3f3c b13e afbb a9d8 10bd a7da 70bb
000003b0: 65a9 44bc 20a5 02bc 23be d43c 3ebd 30bc
000003c0: e99a 14bd f8a7 703c 8194 8fbc 2043 203c
000003d0: 2fbe 0a3d d6da 7fba cf77 ba3c 648d 513c
000003e0: 1356 c7bb c12d b53c 401b d03c bb63 67bc
000003f0: 95ae ec3c fbbc 4b3c 0d9f f7bc 0945 adbb

fc1.bias f4 [128]
-0.037222378 0.000889138 0.010180133 -0.027397772 0.0010872219 -0.024136022 -0.028769506 0.016373388
0.013015349 0.02686545 -0.001564477 0.021886716 0.024438245 0.03553527 0.037603468 0.043005355
0.013567935 0.03179727 0.0005945411 -0.041370835 0.05149118 0.007053004 0.052160457 0.011907463
0.029197639 0.04943361 0.037771612 0.008734306 0.03286247 0.015540771 0.029503344 0.022732873
0.019301148 0.01692165 0.009085365 0.047350373 0.052851286 0.019608498 0.04213724 -0.019273892
0.07659101 -0.007882941 -0.007910911 -0.019775778 0.06407167 0.032698285 -0.008312204 0.017371217
-0.012608936 -0.008520499 -0.023477737 0.048250023 0.04636133 0.006661028 0.018305546 0.004674555
0.0019692846 0.037739888 0.0044793426 0.01940914 0.0560453 0.013493639 -0.044322237 -0.002699911
0.020620318 -0.014561198 0.059086848 0.06395601 0.015133592 0.017958885 0.026039638 -0.028957445
-0.017981233 0.00052702794 -0.014773922 0.011051711 -0.016767906 -0.03963417 0.04032372 0.0643468
-0.0043076207 -0.01100617 0.010628302 -0.010775472 0.06187451 0.048728786 0.0030049626 0.00829168
0.0015654947 0.022951363 0.047035724 0.02640414 0.02626608 0.025138214 0.02524627 0.01919947
-0.041300386 0.024437657 0.018090783 0.027229385 -0.0020535295 -0.022146204 -0.036999267 0.02534435
-0.02259213 -0.026037645 0.0027639025 0.022044372 -0.036939904 0.019548995 0.051697955 0.021567605
-0.02047305 0.0067789573 0.054062355 0.015428889 -0.010320521 0.00815326 0.022914665 0.006584087
-0.023088004 0.025235837 0.012981236 0.010136595 0.053072143 -0.04133165 0.03740862 0.011081787
00000000: 7e76 18bd 0b15 693a 93ca 263c 4b71 e0bc
00000010: 1d81 8e3a e8b8 c5bc 07ae ebbc 7c21 863c
00000020: 553e 553c ef14 dc3c 230f cdba c54b b33c
00000030: b732 c83c 6e8d 113d 1806 1a3d 6226 303d
00000040: 0b4c 5e3c db3d 023d fada 1b3a 7774 29bd
00000050: 6ae8 523d e31c e73b 34a6 553d 8517 433c
00000060: e32f ef3c e67a 4a3d 68b6 1a3d 561a 0f3c
00000070: cc9a 063d b89e 7e3c ffb0 f13c 4a3a ba3c
00000080: 711d 9e3c 469f 8a3c c8da 143c 77f2 413d
00000090: 977a 583d 00a2 a03c 1998 2c3d 48e4 9dbc
000000a0: bfdb 9c3d 7327 01bc c49c 01bc d000 a2bc
000000b0: 0238 833d a3ee 053d e92f 08bc 154e 8e3c
000000c0: b695 4ebc 9099 0bbc 6254 c0bc d1a1 453d
000000d0: 61e5 3d3d c144 da3b 83f5 953c 022d 993b
000000e0: 1d0f 013b 2495 1a3d 73c7 923b ebff 9e3c
000000f0: c28f 653d 6d14 5d3c 3c8b 35bd fdf0 30bb
00000100: f1eb a83c 1792 6ebc 0d05 723d 5efb 823d
00000110: e3f2 773c 831e 933c 1451 d53c 2a38 edbc
00000120: 614d 93bc 3f28 0a3a 520e 72bc 3c12 353c
00000130: d95c 89bc 7057 22bd 7c2a 253d 41c8 833d
00000140: f126 8dbb 3953 34bc 5422 2e3c 9b8b 30bc
00000150: 2070 7d3d d697 473d e8ee 443b d4d9 073c
00000160: 4931 cd3a 7f04 bc3c 88a8 403d 7f4d d83c
00000170: f62b d73c a8ee cd3c 44d1 ce3c 3548 9d3c
00000180: 982a 29bd 7b31 c83c 1f33 943c 2910 df3c
00000190: 8294 06bb f56b b5bc 8b8c 17bd f49e cf3c
000001a0: 2113 b9bc e64c d5bc 9722 353b 6696 b43c
000001b0: 4c4e 17bd 3725 a03c 3cc1 533d 8cae b03c
000001c0: 19b7 a7bc 0422 de3b 7d70 5d3d 73c9 7c3c
000001d0: 6717 29bc 4095 053c 89b7 bb3c 53bf d73b
000001e0: 0e23 bdbc 63bb ce3c 40af 543c f613 263c
000001f0: 2d62 593d 604b 29bd c839 193d 6290 353c

fc2.weight f4 [768, 128]
-0.051060144 0.0737986 -0.06747197 0.010199966 -0.06748044 -0.06632917 -0.1493671 -0.07391525
-0.049649924 0.039850183 -0.029401755 0.029006682 0.07491118 -0.046449002 -0.01556853 0.032716274
0.023901626 0.05887026 0.07444052 0.015637202 0.060586404 0.024179632 0.05919846 0.007403451
-0.11573982 0.08574971 0.021913528 -0.036409322 0.040392205 0.01472268 0.12906054 -0.025196664
-0.060681395 0.05775279 0.073948465 -0.028635621 0.083829045 -0.07489403 -0.07498043 0.1382299
-0.0646068 -0.039289832 -0.023389928 0.024734877 0.049525335 0.033137612 -0.1049156 -0.04693923
0.046382543 0.08239535 0.07756501 0.05085904 -0.025589429 -0.043860786 0.08669516 -0.09924018
0.0808194 0.15541694 0.16788352 -0.014601103 0.001684205 -0.086464874 0.018552693 -0.05227092
0.09089644 0.009930384 0.14807464 -0.027708752 0.10698889 -0.07059814 0.017063033 0.020503746
0.036148876 0.039094776 0.012992303 -0.030596247 -0.063859 -0.0145354485 0.031283088 0.020881742
0.22560802 0.06813607 0.027008852 0.08161767 0.07157652 -0.114079855 -0.07063511 -0.08008851
-0.020943854 0.0959905 0.020822154 0.0646151 0.017564433 0.07799733 0.08542808 -0.07512648
0.11811679 -0.027714357 -0.008198994 -0.08603312 -0.019150207 -0.14907068 -0.04148758 0.0400795
0.05498429 -0.02364699 0.059809428 0.06867955 0.011597289 0.036384765 -0.0027894 -0.06591379
-0.08921605 0.11719535 0.04760894 0.19291963 0.003794963 0.024590723 0.068561494 -0.04846291
-0.09693723 0.0015901332 0.14093111 -0.09556817 0.07504281 -0.018666578 -0.04035554 0.014214259
0.04190999 0.12213427 0.039303165 -0.026200134 0.044597913 0.02405684 0.24096519 -0.041613813
0.0065660267 0.11184559 -0.015959753 0.08797983 -0.0006804189 0.10414107 -0.038215846 0.14043996
-0.23340711 -0.14478858 -0.079156935 -0.06257612 -0.027684787 -0.06589053 -0.029166644 -0.040341925
-0.19039966 0.09897057 -0.02150736 0.1554113 0.14458612 -0.06615488 -0.009822991 0.044669453
0.14810383 -0.053014234 0.18329783 0.051649433 -0.06540357 0.08589583 0.123558685 -0.0072726486
-0.097946756 0.1236852 0.0738663 -0.003234901 -0.09338438 -0.019874858 0.042315636 0.06576844
-0.014571619 0.007816995 0.09297006 0.10423213 0.10661793 0.09259321 0.03851235 0.2560535
0.02333295 -0.07462614 0.06590301 -0.05772146 0.053164072 0.03383116 -0.006549079 -0.0104109235
0.059352476 -0.07941297 -0.08410609 -0.10332329 0.06479493 -0.03742976 0.0011235713 0.0036002498
-0.060826834 0.07908809 0.13270272 0.013991042 0.027047861 0.08677816 0.049111255 0.10579222
0.042486023 -0.14192373 0.06103619 0.036007598 0.009068114 -0.15686996 -0.038301356 -0.011472368
-0.07739975 0.037031338 -0.035128057 -0.006528307 0.07513714 0.08735922 -0.03429343 0.008849212
0.12915026 -0.036923736 -0.027502835 0.09068264 -0.07595223 0.02762518 -0.0013460699 -0.039383404
-0.048769865 0.033467926 -0.076521605 -0.070735514 -0.07196475 -0.19707403 0.007749416 -0.12715915
0.09405582 -0.16700603 0.07856921 0.080547236 0.060429856 -0.12890017 0.060800012 -0.035904154
0.012595034 0.059787545 -0.1073974 0.09168492 -0.026159381 0.0131599875 0.15142408 -0.052217938
00000000: 7124 51bd b823 973d bf2e 8abd c21d 273c
00000010: 2f33 8abd 96d7 87bd b0f3 18be e160 97bd
00000020: b85d 4bbd f239 233d f3db f0bc 6c9f ed3c
00000030: 086b 993d 4f41 3ebd 2613 7fbc 8001 063d
00000040: 58cd c33c f121 713d 4574 983d 9719 803c
00000050: 7329 783d 5d14 c63c 167a 723d a698 f23b
00000060: 0009 edbd 8b9d af3d 0084 b33c f121 15bd
00000070: 4c72 253d 6537 713c 7228 043e 3c69 cebc
00000080: 0e8d 78bd 318e 6c3d 4b72 973d 4095 eabc
00000090: 90ae ab3d 0b62 99bd 578f 99bd 248c 0d3e
000000a0: 9250 84bd 60ee 20bd 3c9c bfbc cca0 ca3c
000000b0: 14db 4a3d 4ebb 073d fddd d6bd 5a43 40bd
000000c0: 9ffb 3d3d e5be a83d 67da 9e3d 9251 503d
000000d0: eca0 d1bc 5ea7 33bd 3b8d b13d 6f3e cbbd
000000e0: a484 a53d 9e25 1f3e a8e9 2b3e 7739 6fbc
000000f0: 8bc0 dc3a 7f14 b1bd d1fb 973c 081a 56bd
00000100: ea27 ba3d 0db3 223c e1a0 173e 77fd e2bc
00000110: fe1c db3d c295 90bd c6c7 8b3c 79f7 a73c
00000120: d810 143d d821 203d abdd 543c fba4 fabc
00000130: 82c8 82bd 1726 6ebc b222 003d 3010 ab3c
00000140: ca05 673e ed8a 8b3d ab41 dd3c 2a27 a73d
00000150: b696 923d b3a2 e9bd 24a9 90bd 7205 a4bd
00000160: 7292 abbc ab96 c43d 3993 aa3c ec54 843d
00000170: 49e3 8f3c 10bd 9f3d ebf4 ae3d e9db 99bd
00000180: 37e7 f13d 3809 e3bc 1355 06bc 2232 b0bd
00000190: e5e0 9cbc fca5 18be e1ee 29bd 672a 243d
000001a0: 3537 613d 55b7 c1bc bbfa 743d dda7 8c3d
000001b0: 8e02 3e3c 3108 153d 5ece 36bb cffd 86bd
000001c0: e8b6 b6bd 1e04 f03d 9801 433d b98c 453e
000001d0: eab4 783b 7c72 c93c f869 8c3d 0b81 46bd
000001e0: 0787 c6bd 046c d03a 3f50 103e 3fb9 c3bd
000001f0: 0bb0 993d a7ea 98bc da4b 25bd ece2 683c
00000200: cfa9 2b3d 8821 fa3d 5bfc 203d aaa1 d6bc
00000210: 4dac 363d da12 c53c 94bf 763e 3f73 2abd
00000220: d327 d73b 4d0f e53d 07be 82bc c52e b43d
00000230: 245e 32ba ea47 d53d 3888 1cbd 7ecf 0f3e
00000240: 4602 6fbe 7543 14be 081d a2bd e927 80bd
00000250: 35cb e2bc 9df1 86bd e3ee eebc 933d 25bd
00000260: 21f8 42be 15b1 ca3d 3430 b0bc 2424 1f3e
00000270: 620e 143e 367c 87bd 9cf0 20bc 51f7 363d
00000280: 88a8 173e 7425 59bd 6db2 3b3e 5b8e 533d
00000290: 4ff2 85bd 27ea af3d 560c fd3d 664f eebb
000002a0: 4f98 c8bd ab4e fd3d 3747 973d a200 54bb
000002b0: 4f40 bfbd 99d0 a2bc 2953 2d3d 9bb1 863d
000002c0: cdbd 6ebc da12 003c 1667 be3d a877 d53d
000002d0: 805a da3d 82a1 bd3d 20bf 1d3d 7219 833e
000002e0: be24 bf3c 97d5 98bd 28f8 863d 566d 6cbd
000002f0: 92c2 593d 8b92 0a3d a899 d6bb 9492 2abc
00000300: 951b 733d 44a3 a2bd d03f acbd 299b d3bd
00000310: 34b3 843d f34f 19bd cc44 933a 2bf2 6b3b
00000320: 8f25 79bd f0f8 a13d 39e3 073e af3a 653c
00000330: 7a93 dd3c bfb8 b13d e228 493d 97a9 d83d
00000340: d305 2e3d 7454 11be 1501 7a3d b47c 133d
00000350: 6d92 143c 85a2 20be e2e1 1cbd 99f6 3bbc
00000360: c383 9ebd 2cae 173d 70e2 0fbd 69eb d5bb
00000370: 80e1 993d 64e9 b23d 4577 0cbd 49fc 103c
00000380: f73f 043e 583d 17bd a04d e1bc d2b7 b93d
00000390: d88c 9bbd 344e e23c 9c6e b0ba 7e50 21bd
000003a0: e9c2 47bd aa15 093d 5cb7 9cbd c8dd 90bd
000003b0: 4162 93bd c6cd 49be d0ee fd3b 0236 02be
000003c0: 56a0 c03d a103 2bbe e5e8 a03d f3f5 a43d
000003d0: 4c85 773d 68fe 03be 6f09 793d 3c10 13bd
000003e0: 675b 4e3c c9e3 743d 2bf3 dbbd 4ec5 bb3d
000003f0: 334c d6bc fd9c 573c ea0e 1b3e 7ae2 55bd

fc2.bias f4 [768]
-0.003937827 0.0069815954 0.0060665864 0.024373354 -0.09552074 -0.053521626 0.0072595496 0.063423604
0.053016048 0.05066982 0.020902123 -0.029041281 0.026436146 -0.007782332 -0.076378345 0.075281814
0.06366069 -0.050726812 0.045704078 -0.051639505 -0.077841505 -0.02084352 0.008049751 0.045072697
-0.094080605 0.036072757 -0.04877687 -0.023910722 -0.049856447 0.04868772 0.037029587 0.06416489
0.06384504 0.009409499 0.022976233 -0.078176886 0.04366127 0.016206937 -0.065293945 -0.082609564
0.109825835 0.039531067 -0.0048770597 0.047197137 -0.101777874 -0.040557195 -0.003324744 0.05291621
0.047774035 -0.08053662 0.05002589 0.0032316528 -0.016922835 0.106608614 0.04424841 0.05625819
-0.060813017 0.012388529 0.031720467 -0.015224953 -0.008401239 0.04196185 -0.0569877 0.05068696
-0.035248004 0.037098758 0.008285485 -0.0714956 0.04772495 -0.029224213 0.010328448 0.02693717
-0.078021094 -0.0675539 0.06809982 0.027848499 -0.03936212 0.042867575 -0.07019029 -0.029121216
0.034325287 0.045280278 0.041 -0.07765 0.0067543094 -0.08683563 0.0495258 0.057200186
-0.016244443 -0.039615564 -0.08149456 0.08209401 -0.049896367 -0.0046084947 0.06520224 0.009574596
0.008443431 -0.009834581 -0.03348817 -0.054755613 -0.06254824 0.033968918 -0.05106335 -0.05029941
-0.033152547 -0.030452242 -0.0068538766 -0.072504066 0.04493582 -0.048261344 -0.020812325 0.05332057
-0.025397066 -0.059307005 0.0852931 0.020792188 0.034322117 -0.09125036 0.0684681 0.036584504
-0.040782228 -0.055414762 -0.030795917 -0.108527385 0.06340768 -0.047120333 0.017662477 -0.003838572
-0.040606644 0.060241148 -0.08066758 0.008913476 -0.035728328 -0.10291435 0.05623359 0.012693069
0.027138181 -0.0325607 -0.01940945 0.07082744 -0.054284457 -0.019494733 0.07539551 0.032599714
0.09357091 -0.012989958 -0.021832498 -0.06120938 0.043101564 0.023164677 0.07023519 -0.015059372
0.010112203 0.055915985 -0.06639166 0.0077217417 0.10204104 -0.026309265 0.025038505 -0.035244673
-0.027843773 0.0183182 0.038481947 0.014136301 -0.00403679 0.050974436 -0.007845215 0.059924167
0.051812995 -0.008367665 0.06213064 -0.06008371 0.0025903813 0.085178055 0.051663376 -0.073273815
0.003588861 -0.025325594 -0.030672638 -0.08376605 0.118380554 -0.024989592 -0.03754084 -0.061007153
-0.068729065 0.038013935 -0.06919717 0.035509888 0.048055362 -0.04197902 -0.02281475 0.10109133
0.055717833 0.062065158 0.039137106 0.0022497792 -0.07484524 0.08579333 0.058973275 -0.08104562
0.046794087 -0.06225794 -0.032326896 0.046453275 0.0026802097 0.028297747 0.022738395 0.015664801
0.034788396 0.07106504 0.009453192 -0.057163745 -0.05749793 0.05618182 0.09688702 -0.059205122
0.0093794195 -0.011229625 0.06557205 -0.05841763 0.03815502 -0.05098474 -0.028485458 -0.030202195
-0.06962726 -0.003050164 0.05420349 0.006267065 0.07552749 0.06744818 0.069873296 0.0535444
0.010518301 -0.0009931902 0.028862944 0.046757072 -0.0067075696 -0.030855924 0.048623282 0.07685274
-0.06931969 0.03368916 -0.05276233 0.076620564 -0.08804155 0.1314642 0.04244371 0.05181289
-0.039189305 0.011421651 -0.072853625 -0.022320323 0.031162491 -0.07509216 0.031665012 0.036873735
00000000: e308 81bb dec5 e43b 37ca c63b a1aa c73c
00000010: 61a0 c3bd 7e39 5bbd 84e1 ed3b 3ce4 813d
00000020: 5b27 593d 288b 4f3d ee3a ab3c fbe7 edbc
00000030: 9e90 d83c ef02 ffbb 406c 9cbd 5a2d 9a3d
00000040: 8960 823d ebc6 4fbd 3334 3b3d f283 53bd
00000050: 5e6b 9fbd 08c0 aabc 1ae3 033c 269e 383d
00000060: 55ad c0bd 07c1 133d 41ca 47bd 6be0 c3bc
00000070: 4636 4cbd c66c 473d 56ac 173d e268 833d
00000080: 30c1 823d 4d2a 1a3c a738 bc3c 341b a0bd
00000090: 29d6 323d 69c4 843c d5b8 85bd 342f a9bd
000000a0: 5eec e03d 54eb 213d becf 9fbb c951 413d
000000b0: eb70 d0bd 4d1f 26bd f3e3 59bb abbe 583d
000000c0: b5ae 433d 62f0 a4bd f3e7 4c3d 23ca 533b
000000d0: c2a1 8abc 9e55 da3d d23d 353d fd6e 663d
000000e0: 1217 79bd 42f9 4a3c 52ed 013d 1572 79bc
000000f0: 5aa5 09bc 30e0 2b3d ef6b 69bd 219d 4f3d
00000100: 3660 10bd def4 173d d8bf 073c 496c 92bd
00000110: 3d7b 433d 9e67 efbc a738 293c 57ab dc3c
00000120: 86c9 9fbd b359 8abd eb77 8b3d 8922 e43c
00000130: 2d3a 21bd e995 2f3d edbf 8fbd 9e8f eebc
00000140: ac98 0c3d d077 393d 9eef 273d f706 9fbd
00000150: 4153 dd3b e1d6 b1bd 91db 4a3d be4a 6a3d
00000160: 1113 85bc ee43 22bd 9fe6 a6bd e820 a83d
00000170: 2260 4cbd db02 97bb c188 853d c4de 1c3c
00000180: 5156 0a3c 3921 21bc e42a 09bd 6c47 60bd
00000190: 4b19 80bd fe22 0b3d ce27 51bd c106 4ebd
000001a0: f7ca 07bd fb76 f9bc 7c96 e0bb 037d 94bd
000001b0: 9f0e 383d b0ad 45bd 9c7e aabc ac66 5a3d
000001c0: 820d d0bc e7eb 72bd 26ae ae3d 6154 aa3c
000001d0: 5995 0c3d 78e1 babd 0139 8c3d a2d9 153d
000001e0: 440b 27bd 97fa 62bd b847 fcbc 9b43 debd
000001f0: e3db 813d 4001 41bd e6b0 903c 8d90 7bbb
00000200: 2753 26bd 6cbf 763d 0b35 a5bd d409 123c
00000210: de57 12bd c2c4 d2bd 3155 663d 97f6 4f3c
00000220: e450 de3c 5e5e 05bd 9100 9fbc fa0d 913d
00000230: 6159 5ebd 6bb3 9fbc f668 9a3d 4787 053d
00000240: 1ba2 bf3d d5d3 54bc 11da b2bc b0b6 7abd
00000250: 448b 303d d9c3 bd3c 78d7 8f3d 96bb 76bc
00000260: a7ad 253c 2908 653d 5af8 87bd aa06 fd3b
00000270: e5fa d03d 8786 d7bc 8d1d cd3c b85c 10bd
00000280: a018 e4bc 0d10 963c 3f9f 1d3d f29b 673c
00000290: 0d47 84bb 92ca 503d 3789 00bc 0b73 753d
000002a0: dd39 543d 8818 09bc b37c 7e3d 561a 76bd
000002b0: 63c3 293b d571 ae3d fa9c 533d 9510 96bd
000002c0: 1933 6b3b 9f77 cfbc 2f45 fbbc 898d abbd
000002d0: 8171 f23d f9b6 ccbc 6dc4 19bd a3e2 79bd
000002e0: d3c1 8cbd 80b4 1b3d 3fb7 8dbd d172 113d
000002f0: b3d5 443d 31f2 2bbd 00e6 babc f908 cf3d
00000300: 6238 643d 0938 7e3d 3b4e 203d 0871 133b
00000310: 7648 99bd 6ab4 af3d f68d 713d 3ffb a5bd
00000320: 28ab 3f3d 2f02 7fbd 3569 04bd ca45 3e3d
00000330: 75a6 2f3b add0 e73c df45 ba3c 7853 803c
00000340: 477e 0e3d 8c8a 913d 90e1 1a3c 8824 6abd
00000350: f382 6bbd e81e 663d b46c c63d 1281 72bd
00000360: 23ac 193c 76fc 37bc a44a 863d 5347 6fbd
00000370: 7048 1c3d 60d5 50bd 565a e9bc 986a f7bc
00000380: bd98 8ebd 43e5 47bb 7b04 5e3d f45b cd3b
00000390: 28ae 9a3d 4522 8a3d bb19 8f3d 5f51 5b3d
000003a0: f454 2c3c ef2d 82ba fb71 ec3c 5884 3f3d
000003b0: 2ccb dbbb 90c5 fcbc 3529 473d f864 9d3d
000003c0: 7bf7 8dbd a5fd 093d 501d 58bd 3eeb 9c3d
000003d0: 214f b4bd 8d9e 063e 75d9 2d3d c139 543d
000003e0: f784 20bd e021 3b3c 4834 95bd 1cd9 b6bc
000003f0: 7b48 ff3c ebc9 99bd 2cb3 013d ea08 173d
